Exercise4_model.tflite (tflite, 625036 bytes, 10 tensors)

arith.constant f4 [64]
000000 11 a9 a5 bb 30 1b a0 bc 5f e8 9b bc ff 98 b7 bc
       -0.0050555547 -0.019544214 -0.019031702 -0.022411821
000010 64 bd 16 bc cf 13 90 3c a8 ab 96 ba 8d e8 ca 3b
       -0.009200428 0.01758757 -0.0011495249 0.006192273
000020 fe f8 8d bb 4b 04 bd bb bc 6d dc bc c0 73 8f bc
       -0.0043326607 -0.005768334 -0.026907794 -0.017511249
000030 47 ea bb bc 9e 41 25 bc 9c de 31 bc e2 86 a0 3b
       -0.02293886 -0.010086445 -0.010856297 0.004898892
000040 af 7c c9 3b 28 86 df ba ef fb a0 3c 05 f8 2f bc
       0.0061488966 -0.0017053531 0.019651381 -0.010740285
000050 0e e8 11 bb df fc df bc bd 59 9e bc 2a 5b f4 bb
       -0.002226356 -0.027342258 -0.0193299 -0.0074571567
000060 f5 21 86 3c e0 b4 00 bc 23 d3 32 bc da 4d 9b 3c
       0.016373614 -0.007855624 -0.010914597 0.018958021
000070 fe 4c b7 3b 61 d6 3b bd 7d f1 bb 3c 7f 88 d1 bc
       0.005593895 -0.045858745 0.022942299 -0.025577782
000080 24 70 27 bc b9 e5 f2 3b 63 5e f9 bb f8 15 90 3c
       -0.0102196075 0.007412639 -0.0076101287 0.0175886
000090 41 7f 1a bc 04 ec 84 bb 2f bc cb bb 73 ce f6 bb
       -0.009429754 -0.0040564556 -0.0062175016 -0.007531935
0000a0 d4 2c 24 3b f0 4e 9b 3a db da 90 3c 86 56 16 3b
       0.0025051134 0.0011849087 0.017682483 0.0022939756
0000b0 0e c3 61 bc bf c8 5a bc 61 6f 1e bc ce aa 4f bb
       -0.013779415 -0.013353526 -0.0096701095 -0.00316875
0000c0 6f 3b 1d bc e4 46 22 3c 55 eb 83 bc 97 ca a2 3c
       -0.00959669 0.009904597 -0.016103426 0.019871993
0000d0 2d b4 f8 bb 29 45 10 bc 05 c0 88 bc 22 d8 88 bc
       -0.007589838 -0.008805552 -0.016693125 -0.016704623
0000e0 e5 28 4f bc e5 65 88 ba 52 d1 6b 3b 4b ef f9 bc
       -0.012644027 -0.0010406343 0.003598292 -0.030509612
0000f0 04 03 b1 3b 9d cc 9b bb 51 0f 05 3b a2 ad 29 3c
       0.005401971 -0.0047546164 0.0020303319 0.010356339

arith.constant1 f4 [32]
000000 86 c2 61 bb 5b 75 88 bc 0a 47 08 bd 7c e0 ef bc
       -0.003444822 -0.016657522 -0.033270873 -0.029281847
000010 64 b9 8b 3c 89 6a 8f bc e0 0e cc 3c a5 f9 64 3c
       0.017056175 -0.017506855 0.024909437 0.0139755355
000020 51 ea d7 3b bc fa 08 3a 24 f3 49 bc 1a 85 a1 bc
       0.006589212 0.00052253506 -0.012326036 -0.019716788
000030 da 3e 3d 3c 1f 41 25 bc 66 f2 84 3c 40 96 ef ba
       0.0115506295 -0.010086327 0.016228866 -0.0018279031
000040 b0 e8 82 bc cb 1d 7b ba 4b 26 b8 bb fb 91 26 bc
       -0.015980095 -0.00095793296 -0.0056197993 -0.01016664
000050 10 62 e2 bc ff f7 d7 ba 02 3f 16 3c 13 40 9d 3b
       -0.02763465 -0.0016477107 0.009170296 0.004798898
000060 61 c9 c6 3b af 6e 0e 3b 9d 7c 02 bd 4c 1e 3b bd
       0.0060664867 0.0021733453 -0.03185712 -0.04568319
000070 30 73 77 3c 8a fa 26 ba 84 e3 e2 bc 79 71 55 bb
       0.015103146 -0.00063697307 -0.027696379 -0.0032568856

arith.constant2 f4 [16]
000000 4c 51 d3 3a e6 75 2b 3d 2d c0 85 bc c9 c7 b9 3c
       0.0016122251 0.041860484 -0.016326988 0.022678273
000010 c5 2e dc ba 20 4a a3 3c 80 10 89 35 d0 fa 5f bc
       -0.0016798606 0.019932806 1.0212098e-06 -0.013670638
000020 50 02 f4 bc 76 9d 5a 3c 62 85 31 bc e8 8b 04 3d
       -0.029786259 0.013343206 -0.010835024 0.032359987
000030 f5 26 ff 3c 59 e9 f8 3c 3d 0c cd 3c 1b 72 50 3c
       0.031146506 0.030384706 0.02503025 0.012722517

arith.constant3 f4 [64, 3, 3, 32]
000000 9c d1 81 3d b9 be f0 bc 5b a3 19 3c 4c 99 ff bb
       0.06338808 -0.029387819 0.009377326 -0.007800257
000010 3f 1f 78 bd 2d 70 22 3c cc 41 d8 bd e9 06 dd ba
       -0.060576674 0.00991444 -0.10559425 -0.0016863021
000020 74 f8 a5 bd 39 31 09 3d e5 4b 00 bd 40 2c ec 3b
       -0.08104029 0.033494208 -0.03132238 0.0072074234
000030 3f 1b 3e 3d 9c ee e7 bc 50 0d b4 bc 07 ea 5f 3d
       0.046412703 -0.02831202 -0.021979004 0.054666545
000040 81 92 95 3d ba f1 84 3d 80 ea 87 bb eb 1f 5f 3c
       0.07303334 0.06491418 -0.0041478276 0.01361845
000050 62 0e 12 bd b2 3c 48 3d 28 a3 6f bd 11 ea 87 3d
       -0.035658248 0.04888601 -0.058505207 0.066364415
000060 68 90 f1 bc c4 85 94 3c f8 89 95 bb a9 e1 2a 3c
       -0.029487804 0.01813019 -0.0045635663 0.010429778
000070 f5 46 49 bd f5 12 3d 3d 92 97 02 bb 9c 10 50 3d
       -0.049139936 0.046160657 -0.0019926769 0.05079709
000080 b6 da 88 3b bc 61 a5 3d ce 92 60 bd 95 76 b8 bd
       0.004176463 0.08075282 -0.054827504 -0.09006993
000090 7e 3e 18 bd 04 89 35 bd 56 df 7d bd 7e bf ec bd
       -0.037168972 -0.04432012 -0.061980568 -0.11559962
0000a0 08 ac fc bd ea 81 a2 bd d9 1d af bd fa 42 8c 3d
       -0.123375 -0.079349354 -0.08550615 0.06848712
0000b0 04 ae 71 ba a6 de 50 bc 26 8c 8e bd 0e 12 a0 bb
       -0.0009219351 -0.012748396 -0.06960325 -0.004884965
0000c0 09 b4 8d bd 51 ac e0 3d a4 3c 85 bd bf 65 08 3c
       -0.069191046 0.10970367 -0.06505707 0.008325039
0000d0 9e 62 72 bd 1a 7f d1 3d 4e d5 8d bd bc 1c 30 3d
       -0.05917608 0.10229321 -0.0692545 0.042996153
0000e0 f0 91 86 bc 3f 61 47 bc 94 fb 60 3d 45 f8 b6 bc
       -0.01642701 -0.012169181 0.054927424 -0.022335181
0000f0 72 7a 83 bd 2c 34 17 3e d9 95 9d bd a4 bc 2b 3d
       -0.06419839 0.14765996 -0.07694597 0.04192795
000100 8d 83 3e bd ce ba ac 3c 22 27 08 bd bc 26 7c bc
       -0.046512175 0.02108517 -0.033240445 -0.015390094
000110 46 2d 1c bd 39 f8 90 bd 59 97 f8 3b 70 df 84 bd
       -0.038129114 -0.07078595 0.0075864014 -0.0648793
000120 85 f4 bf bc 5f e7 67 3d 86 55 47 3d 74 49 4f bd
       -0.023432026 0.056617137 0.048665546 -0.05060716
000130 29 c0 59 3d 4e 4b 4b 3c 15 d8 e4 bd f0 dd dd 3c
       0.053161774 0.012408091 -0.11174027 0.027083367
000140 04 89 8a 3d 7f 4a 80 3d 42 0a 24 bd 2a 45 55 3d
       0.06764415 0.06264209 -0.040048845 0.052067913
000150 a4 9c a1 3c 32 b1 ac 3d 22 7c 0c be 53 26 6d bd
       0.019728012 0.08432235 -0.13719228 -0.057897877
000160 2d 67 ee 3c 40 a6 9e bd fa 8b b2 bc 6c de 90 bc
       0.029101932 -0.077465534 -0.021795262 -0.017684184
000170 c7 9a 29 bc ed cf 43 3d ee dd 51 3b fd a5 3a bd
       -0.010351843 0.047805715 0.003202315 -0.045568455
000180 71 62 13 bd 42 bb 27 bc 58 cc 3c 3d be ac c7 3c
       -0.035982553 -0.010237517 0.046093315 0.024374362
000190 cc 24 cf bd 22 d8 99 3b 7c 4c 46 bc 4a 49 90 bc
       -0.1011444 0.0046949545 -0.012103196 -0.017613072
0001a0 b6 68 fc bc 92 04 44 bd 7d de 67 bd c2 94 98 3d
       -0.030811649 -0.04785592 -0.056608666 0.07450248
0001b0 82 b4 d9 3d 41 6c 14 3d ef 1c b9 bc f0 dc fd 3b
       0.10630132 0.03623605 -0.022596804 0.007747285
0001c0 37 db b5 bc 61 df 8e 3d 7d 8e a8 3c 63 42 64 bc
       -0.022199256 0.069762 0.020575756 -0.013931843
0001d0 79 f4 62 3d 3b 3a 68 3d 3b ae da bd 23 bd b3 bd
       0.05540893 0.056696158 -0.10677763 -0.08776309
0001e0 70 34 9e 3c 7f 62 88 bd 1d cc 8a 3c bb f7 5a 3c
       0.019312114 -0.06659412 0.016943032 0.013364728
0001f0 0e e1 01 bd 57 13 93 bd 6e cd 5e 3c 74 8f a6 bc
       -0.03170877 -0.07181423 0.013598783 -0.020332076
000200 cf 1b 11 bc 16 9d 04 bd 50 41 dc ba bc 61 11 bd
       -0.008856728 -0.03237637 -0.0016804133 -0.035493597
000210 92 dc f7 bc 03 7d a3 3d e1 70 3d 3d f6 31 0d bd
       -0.030256543 0.079828285 0.046250228 -0.034471475
000220 b5 40 b3 bd 43 50 6e ba 2a 86 93 3d 10 45 2d 3d
       -0.08752576 -0.00090909394 0.07203324 0.04230219
000230 3c 4a 89 3d b3 f2 a4 bd d6 a8 a9 bd 83 40 a7 bd
       0.06703612 -0.08054104 -0.08284156 -0.081666015
000240 c4 ea 2b 3a 67 8d cb 3d e2 dd 46 bd 2f 57 90 bc
       0.0006558115 0.0993908 -0.048551448 -0.017619697
000250 34 15 52 bc 20 b4 f1 3d 4c 17 46 bc 05 48 3f 3c
       -0.012822438 0.11801934 -0.012090515 0.011674886
000260 d9 73 89 3c 14 ba bb bc 05 2f 0a 3d 85 c3 68 bd
       0.016778873 -0.022915877 0.033736248 -0.056827087
000270 b8 83 ad bd a7 71 17 3d 59 f3 3e bd a1 0d e3 3c
       -0.08472389 0.03697362 -0.046618793 0.02771646
000280 56 b0 88 3d c1 5d 88 bd ab 1c a7 3d 16 70 14 bd
       0.066742584 -0.06658507 0.08159765 -0.036239706
000290 4e aa 76 bd 2e 63 19 3d 65 0b 67 3d 6f fe b6 bb
       -0.06022101 0.0374481 0.05640735 -0.00558453
0002a0 8d 1c 90 bd 7c bb 31 3d 74 b4 17 3d e4 1d 4b 3d
       -0.07036696 0.04339169 0.037037328 0.049589053
0002b0 cd 37 41 bd 66 a2 09 bd ce b1 63 bc f5 3f 89 3d
       -0.047172356 -0.03360214 -0.013897372 0.06701652
0002c0 55 de 7a bd 96 18 35 3d 7d dc 5e 3d 4b 85 1d 3d
       -0.06124719 0.0442129 0.054409493 0.038457196
0002d0 fa 4a 21 bd 49 e8 c6 3d 13 38 11 bd d3 16 60 bd
       -0.039378144 0.09712274 -0.035453867 -0.054709267
0002e0 89 f5 09 bc 2d a3 54 bd b6 a1 01 3d 15 b7 99 3d
       -0.008420357 -0.05191343 0.03164836 0.07505623
0002f0 f7 97 01 bd 6d 77 6b 3c ed 3d 4e bd 1d 6d 9d 3c
       -0.031639066 0.014371735 -0.050352026 0.019217068
000300 c5 eb 3c bd 27 6e 2a 3d ab f7 37 3c 56 d1 86 bd
       -0.046123285 0.041608956 0.011228482 -0.065828964
000310 2f 78 ba bd 1e 18 6b 3d 37 e7 b9 bd ba 2b 85 3d
       -0.091049545 0.057396047 -0.09077304 0.06502481
000320 13 fa da bd 2c 7b 99 bd 34 ef 93 3d cb 19 c2 3d
       -0.10692229 -0.07494196 0.07223359 0.09477576
000330 fa 3a 8d bc 50 0f 31 3d 70 b5 40 bd 56 59 4c 3d
       -0.017240036 0.043227494 -0.047048032 0.049889885
000340 e0 bb 2f bd ab c1 c9 3d d3 84 0f 3d 44 e4 0a bd
       -0.04290378 0.09851392 0.03503878 -0.033909097
000350 d6 75 74 3d a3 8c cc 3d 9b 48 75 bd 88 61 e1 3c
       0.05968269 0.09987762 -0.059883695 0.027512327
000360 c7 39 05 bd fb 94 08 bc b5 93 7b 3a bd 94 2c bd
       -0.032525804 -0.008336301 0.00095969 -0.042134035
000370 8f 99 be bd 36 db db 3c a3 eb 4e 3d d1 23 82 bc
       -0.09306633 0.026837926 0.05051769 -0.01588622
000380 de 56 b0 3c e9 9a e8 ba 77 35 65 3c 34 3b 69 bd
       0.021525797 -0.0017746362 0.013989798 -0.056941226
000390 87 76 97 bc 1e a3 71 3d 78 df 0e bd 17 01 a2 3d
       -0.018489135 0.05899345 -0.034881085 0.07910364
0003a0 f8 de 2e 3d 32 03 dc bc e7 16 ea 3c 28 78 93 bd
       0.04269311 -0.026856992 0.028575374 -0.07200652
0003b0 15 1b 26 bd 31 63 87 3d 1d bf 55 3c d3 22 36 bb
       -0.04055317 0.06610716 0.013046053 -0.0027791753
0003c0 1f 42 f0 3c 9f 38 a5 3d 65 64 3e 3c 74 fd fc 3c
       0.029328404 0.0806744 0.011620616 0.030882575
0003d0 44 97 8d bc 68 e4 af 3b 5f 73 e6 bc 91 92 e1 bd
       -0.017284043 0.0053678043 -0.028131185 -0.110142834
0003e0 1c 6e 83 3d 21 26 4d bc 45 c1 2f bd 79 f4 ac 3d
       0.06417486 -0.012521298 -0.042908926 0.08445067
0003f0 d6 69 e1 bd d1 b0 e1 bc 42 e8 05 3d 5b f0 9b 3d
       -0.11006515 -0.027550133 0.0326922 0.076142035

arith.constant4 f4 [32, 3, 3, 16]
000000 7b db c1 3d b6 ea 20 3e f5 c6 ce bd f2 4b c1 bd
       0.09465691 0.15714535 -0.10096542 -0.094383135
000010 96 0b b8 3d d0 3c a1 3d 50 69 57 bd c2 34 e4 3d
       0.08986585 0.07872927 -0.05259067 0.11142875
000020 d9 b4 9b 3d 00 20 cc 3d b2 3d 01 be 8b 57 c0 3d
       0.07602853 0.09967041 -0.12621191 0.093916975
000030 b8 23 40 3c 0f 68 70 bd d1 3c e2 3c cd 8f 0b be
       0.011727266 -0.058692988 0.02761689 -0.13629074
000040 57 4c cd bd 8b 01 d6 bc 54 24 d1 bd 19 4e d5 3d
       -0.10024326 -0.026123783 -0.10212007 0.104152866
000050 16 33 09 bd d7 3a 98 bd 80 1f d5 bd b7 10 2f bd
       -0.033495985 -0.07433098 -0.10406399 -0.04274055
000060 0f 0c 11 bd 52 b1 22 3d 0c 3d 67 3c 1f 4c ff bc
       -0.03541189 0.039719887 0.014113676 -0.031164227
000070 bf 7f 5b 3d 5f 02 8f 3d 62 22 d0 bc fa fa 64 3d
       0.053588625 0.06982874 -0.02540702 0.055903412
000080 21 9f 17 be 01 32 9e 3c fc 28 00 3d ff 92 32 3d
       -0.14806797 0.019310953 0.031289086 0.043597218
000090 b9 1a 35 3d 41 a4 47 bd 5a 00 42 3d a3 01 53 bd
       0.044214938 -0.04874063 0.047363617 -0.051515233
0000a0 d1 b7 d7 bc af e0 92 bd 48 3d 0e bc 5a 70 47 bd
       -0.026332768 -0.07171761 -0.008681603 -0.04869113
0000b0 a0 f5 a7 bd a8 34 2e bc 53 1c ac 3d a7 86 b5 3d
       -0.08201146 -0.010632671 0.0840384 0.088635735
0000c0 a5 c6 d6 bc de 4e f8 3c 55 43 d9 bd 96 ef 9e 3c
       -0.026217768 0.030311044 -0.10608546 0.019401353
0000d0 3b 67 ed 3d 49 76 85 3b 1c a9 90 bc 17 0b 8a 3d
       0.11591955 0.0040729386 -0.017658763 0.067403965
0000e0 f8 11 21 3c 7a 45 10 3e 74 e0 e4 3d 76 4f cf 3c
       0.009830944 0.14089003 0.111756235 0.025306445
0000f0 8e 45 0d bd 0f 33 ea 3d de 5e 26 3e 76 2e 93 bd
       -0.03449016 0.1143552 0.16247126 -0.07186596
000100 42 6d b4 3d e9 c2 f0 3d 88 0c 57 3d 78 bf ad bd
       0.08809902 0.11755926 0.052502185 -0.084837854
000110 cc 60 0c 3e 8b 4a 4d bd db 27 6a 3c fd 84 04 bd
       0.137088 -0.050119918 0.014291729 -0.03235339
000120 2f f2 eb 3d 76 e6 a0 3d 94 0b a6 bd 53 32 95 3d
       0.11520802 0.07856457 -0.08107677 0.07284989
000130 7b 49 06 bd 3b 2f 08 3e 73 c3 42 3d 28 9b 2e bd
       -0.03278492 0.13299267 0.047549676 -0.042628437
000140 4b 6a 65 3d 64 64 50 3c d7 86 bc bd 8e b2 28 bd
       0.056009572 0.0127192475 -0.09205406 -0.041185908
000150 57 ac c4 3c 28 de 7f bd 69 0a 07 be 52 31 ed bc
       0.02400796 -0.062467724 -0.13187565 -0.028954182
000160 97 61 bd 3d 47 38 07 3e 72 10 8f bd c6 94 db 3d
       0.092471294 0.13205062 -0.069855586 0.10721736
000170 76 67 18 3e 1f 25 f4 3d e8 3e 86 3b 16 07 94 3d
       0.14883217 0.11921143 0.0040968545 0.07227914
000180 01 5a c7 3d 59 0a e1 bd 66 de 2e bd 19 49 c4 3b
       0.09733964 -0.10988302 -0.042692564 0.005990159
000190 98 8f d6 3d 3f 09 af bd ce e6 e0 3d 5a 9f 9c bd
       0.10476607 -0.085466854 0.109815225 -0.076475814
0001a0 5e f3 ae bd 1e 62 24 bd 9e 9f e3 3d 77 7a 6f bd
       -0.08542512 -0.040132634 0.11114429 -0.0584664
0001b0 e6 8d ed bd 91 dc 19 3d 2e a0 c3 bd 75 9f 80 3d
       -0.115993306 0.037563864 -0.09552036 0.06280414
0001c0 21 25 5d bd f0 e7 ed 3c 91 03 03 3d 1c a9 8b bd
       -0.053990487 0.02904126 0.031985823 -0.068193644
0001d0 4f d5 96 bc 75 f3 ea bc ab af 99 bd 7a d8 6b 3c
       -0.01841226 -0.028680542 -0.07504209 0.014394874
0001e0 a3 54 9f bd 2d 28 e0 3b 61 09 6a 3d fa 3c 54 bb
       -0.07779815 0.006840727 0.05713785 -0.0032384978
0001f0 0a b4 93 bd 1f 4f c8 bc 43 fc 6f 3d 15 c0 99 3a
       -0.07212074 -0.02445179 0.058590185 0.0011730219
000200 ea 57 c5 3d 49 32 9a 3c 83 67 41 3d 73 3e 48 bd
       0.09635909 0.018822806 0.047217857 -0.04888768
000210 d6 49 cf 3d cb ab 08 be cf da a8 3d 0c c5 59 3d
       0.10121505 -0.13346784 0.082448594 0.053166434
000220 c7 fe b0 bd da 90 ad bc 89 68 3c bd ff 81 e1 3d
       -0.08642345 -0.021187235 -0.04599813 0.11011123
000230 91 56 8a 3d a2 0b ea 3d 90 bd 19 3e 8c f0 b1 3c
       0.067547925 0.11428 0.15013719 0.021721147
000240 cb 0d 08 3e 57 c9 61 bd e1 b1 04 3d 94 a1 93 bd
       0.13286512 -0.055123653 0.0323962 -0.07208553
000250 35 da 72 bd 19 29 05 be 8d 20 90 3c 9d 90 c3 bd
       -0.05929013 -0.13003959 0.017593646 -0.09549067
000260 02 37 cf bd 97 72 37 3d b7 2f a2 bd b2 09 a2 3d
       -0.10117914 0.044787016 -0.07919257 0.079120055
000270 36 0f 9e 3d b4 02 bb 3d f6 79 a0 3d 93 30 21 bb
       0.07717745 0.09131375 0.07835762 -0.0024595603
000280 b2 0a a9 bd a7 99 16 bd 2a 1b 3f 3d c8 08 13 be
       -0.08253993 -0.036767628 0.046656765 -0.14358819
000290 79 e0 b5 3d 5d e1 44 be a9 97 ae bd 09 f5 ab 3d
       0.088807054 -0.19226594 -0.08525021 0.08396346
0002a0 95 e1 94 bc 14 70 a8 bd d9 02 72 bc d9 86 8c bd
       -0.018173972 -0.08224502 -0.014771187 -0.06861658
0002b0 b9 6e bb 3d 60 f3 3e 3d a2 8e 8c bd b2 9f e9 3b
       0.09151978 0.04661882 -0.068631425 0.007129633
0002c0 54 7b 4e 3d d7 77 aa bd ae 84 96 bc cd b0 0b be
       0.050410584 -0.08323639 -0.018373813 -0.13641663
0002d0 49 56 d7 bb 9b 1b 4b bd 5c 1b f2 3d 2e 77 3b 3d
       -0.0065715653 -0.049586874 0.11821625 0.045767955
0002e0 aa 43 8c 3d 9f 0f f6 3d 2b a6 1a bd f9 6e f6 bd
       0.068488434 0.12014698 -0.037756126 -0.12032885
0002f0 f0 13 0b bc e3 42 95 bd 83 86 d0 3b dc 11 1a bd
       -0.00848864 -0.07288148 0.0063636913 -0.03761469
000300 cb 4b 6e bd e5 0d 2d bd 1a 84 a7 3c 4d 15 41 3d
       -0.05817775 -0.04224958 0.020448733 0.047139455
000310 de 99 97 3d b8 a7 2f be 43 f3 0f 3d c8 da 65 bd
       0.07402395 -0.17153823 0.0351441 -0.05611685
000320 28 ab cb 3d ba 23 b9 bc a5 99 c7 bc 29 24 a2 bd
       0.09944755 -0.022600044 -0.024365256 -0.07917053
000330 62 f8 34 3b 55 f1 44 3d ec 08 08 bd b0 a6 ff bd
       0.0027613868 0.048081715 -0.033211634 -0.12482965
000340 2a 7f ff ba df e6 eb 3b 5c 45 c3 3d d0 ba 4a 3c
       -0.0019492854 0.007199153 0.095347136 0.012373641
000350 b2 9e 09 3d a1 16 22 3d c3 97 b5 bc fb 95 e2 bd
       0.03359861 0.03957236 -0.022167092 -0.11063763
000360 aa 13 11 3c 2d 75 0f 3e 59 0b 8d bd de 88 3f bd
       0.008854786 0.14009543 -0.0688693 -0.046761386
000370 88 02 4f 3d 1a 0b 30 bd 8a 31 4f bd de 8f 10 bd
       0.050539523 -0.042979337 -0.050584354 -0.035293452
000380 04 19 b0 3c 28 2c 68 3c 2b 42 68 bd 5f 47 af bd
       0.021496303 0.014170684 -0.056703728 -0.08558535
000390 2a bf e9 3b 6a 25 a8 3b 10 a0 42 3c 26 0e bc 3c
       0.0071333842 0.005131413 0.011878982 0.022955965
0003a0 27 6c 42 3d 38 ce a4 bd b3 5c bb 3d 8e fa 89 3c
       0.047466423 -0.080471456 0.0914854 0.016843107
0003b0 f5 d9 87 bd 7d c8 e2 3b a2 ce 57 3d 50 ee a1 bd
       -0.06633369 0.0069208727 0.052687295 -0.079067826
0003c0 b8 67 3c bd 13 95 b6 bd ef 6a 60 3d c6 ee a2 bc
       -0.04599735 -0.089151524 0.05478948 -0.019889247
0003d0 91 8b 6e 3c f0 60 87 bd 52 4f 30 bc 2a da 0a 3e
       0.014559642 -0.06610286 -0.010761099 0.13559785
0003e0 aa 5f 20 bc a7 c0 a8 bd 2f 64 63 3d 79 29 ad 3c
       -0.009788433 -0.082398705 0.055515464 0.02113794
0003f0 25 c5 0d bd 41 99 2c bc ee 01 35 bc 2a 03 0a 3d
       -0.03461184 -0.010534585 -0.011047823 0.033694424

arith.constant5 f4 [4, 128]
000000 00 ff b4 bb 92 c2 e6 3d c4 38 34 3c 30 b6 c5 3d
       -0.0055235624 0.1126758 0.010999862 0.0965389
000010 ab c6 aa 3c bd 96 9f bd 92 16 4c 3e 13 f5 26 bc
       0.020846685 -0.07792423 0.19930485 -0.010190266
000020 32 5f 0a 3d 55 27 d5 bd dd dd a8 bc 93 80 35 3d
       0.03378219 -0.104078926 -0.020613605 0.04431207
000030 d0 1d 98 3c 38 57 d2 3d 1b bd c1 bd 8a 64 99 bd
       0.018568903 0.10270542 -0.09459897 -0.074898794
000040 d0 df 02 be 08 c6 4c be b5 45 67 3e 93 f0 a3 bd
       -0.1278069 -0.19997418 0.22585185 -0.0800487
000050 12 8f 41 bb 82 2d df 3d 74 ba 77 3c e4 58 34 3e
       -0.002953474 0.10897352 0.0151201375 0.17612034
000060 2b ca 2d bd 06 f8 8e b9 b3 d9 19 be f9 45 7d be
       -0.04242913 -0.00027269142 -0.15024452 -0.24733724
000070 f5 26 ba bd d9 1f 4e be 05 21 89 bd 49 be 15 be
       -0.09089462 -0.20129336 -0.06695751 -0.1462337
000080 f4 a6 f2 3c c6 e6 03 bd 76 4b df bd 43 ec 85 be
       0.029620625 -0.032202505 -0.10903065 -0.26156816
000090 85 b9 ef bd 0d 5b 0f 3e 20 4e 1d be b3 5b 76 3d
       -0.11705307 0.13999577 -0.15361834 0.060146045
0000a0 f1 3c 0f 3e 39 a4 b9 bd 73 22 a7 bb bb dd 0a 3e
       0.13988091 -0.09064526 -0.005100542 0.13561146
0000b0 f4 6e 13 be fd c5 32 3e 72 18 21 3e ae 11 7c 3d
       -0.14397794 0.17458339 0.15731981 0.0615403
0000c0 39 42 1b 3e 6a a0 15 3a bd 20 e2 bd c0 e1 f2 3c
       0.1516198 0.00057078025 -0.110414006 0.029648662
0000d0 79 83 05 3e 11 98 a3 bc 06 ec 84 be 9a ee 08 3e
       0.13038434 -0.019969972 -0.25961322 0.1337227
0000e0 ee 97 3c bd 8b 24 86 bd 30 77 50 be a9 7b 96 3d
       -0.04604333 -0.06549939 -0.20357966 0.07347805
0000f0 8d 69 55 be f4 a1 46 be e9 56 4a bd 9b 67 b0 3d
       -0.20841046 -0.19397718 -0.04939929 0.08613511
000100 3a 2f f1 bc a9 20 12 3e d4 fb cc bd 76 31 8d bd
       -0.029441465 0.14270271 -0.1000897 -0.068941996
000110 1b 60 c0 3d 37 03 44 be 26 3b f9 3d b4 01 38 be
       0.09393331 -0.19141851 0.12169485 -0.179694
000120 96 66 9b bd b4 2d b8 3c 8b a2 ce bc fd 92 65 3d
       -0.07587926 0.02248273 -0.02522399 0.056048382
000130 d5 eb 50 be 49 e5 85 be 92 de 00 3e 7b 7e 31 bd
       -0.20402463 -0.26151493 0.12584904 -0.04333351
000140 0c 31 eb 3c 17 1a 62 3d 21 be 73 be 99 31 52 3e
       0.02870991 0.055200662 -0.23802997 0.20526733
000150 46 45 9e bc d1 8e c3 3d 9b e4 2e 3d e9 37 60 3c
       -0.019320142 0.095487244 0.042698484 0.013685205
000160 72 98 05 be 7b 18 4f be 97 9f 28 3e e6 9a c3 bd
       -0.13046435 -0.20224182 0.16467129 -0.09551029
000170 35 58 f5 bd 97 2a 3d 3e ff bb c2 bc 72 1b 68 be
       -0.11979715 0.18473278 -0.023771284 -0.2266672
000180 f1 0b 38 3e 52 4e 63 3e 64 79 51 3e 41 17 02 3e
       0.17973305 0.22197846 0.20456463 0.12704183
000190 c6 5f 1d be 6f 54 2e bd 98 ca 05 3d 36 84 60 3e
       -0.15368566 -0.04256099 0.03266391 0.21925434
0001a0 ef 76 57 be 47 a8 2b 3d 33 66 2f be f5 95 20 3e
       -0.21041463 0.04190853 -0.1712883 0.15682204
0001b0 dc 6c df 3d 49 d9 be 3d 30 27 2d be f6 31 cd 3d
       0.10909435 0.093187876 -0.1690948 0.10019295
0001c0 35 ac 52 be 5f 91 8e bd 43 66 ab 3d fe 38 52 3e
       -0.20573504 -0.06961321 0.08369114 0.20529553
0001d0 51 e1 18 be e8 19 d5 3d 20 57 19 3c bc 56 5d bd
       -0.14929701 0.10405332 0.009359151 -0.054037794
0001e0 aa 39 2d be d3 19 eb 3b 75 0d d7 3d 91 cb 00 3d
       -0.16916528 0.0071747093 0.105006136 0.031444136
0001f0 4b 77 f6 bc b3 b5 41 3e 5e 70 81 3a 89 d9 05 be
       -0.03008618 0.18916969 0.0009875407 -0.13071264
000200 22 49 3c be 95 23 4f be e8 4f a4 3d 88 e0 34 3e
       -0.18387273 -0.20228417 0.080230534 0.17663777
000210 5d 64 31 3e 19 0e f3 bc 79 4a 43 be 6d 72 e1 3d
       0.17323442 -0.029669808 -0.19071378 0.11008153
000220 53 c5 c2 3b 9c 8d f2 bc ae 22 36 3e c1 40 d7 3c
       0.005943933 -0.02960854 0.17786667 0.026275994
000230 3e 81 23 3e 7c 2a 88 3d b8 88 a1 3d 62 c8 f6 3d
       0.1596727 0.06648728 0.07887405 0.12049939
000240 3a 9a b1 bb 9a 76 3f 3e ec 74 12 be 05 1b 18 be
       -0.0054199966 0.18697587 -0.14302415 -0.14854057
000250 da 90 5c 3e 1b de 0f be a7 50 f9 bd f3 d9 ff 3d
       0.21539631 -0.1404957 -0.12173586 0.124927424
000260 c6 31 11 be b2 49 99 bd ea 72 2d 3e cf 5e da 3c
       -0.14179143 -0.074847594 0.16938367 0.026656536
000270 24 b3 5e be 08 87 5f 3e d7 06 4b 3d d6 6d 58 be
       -0.21748024 0.21828854 0.04956707 -0.21135649
000280 60 6e 82 3d fd ae 09 be 5d 9d 19 3e d4 2f a7 3d
       0.063687086 -0.13445659 0.15001436 0.08163419
000290 57 f5 eb 3d 4e 1d fd 3b 12 ed 03 3e 4d de c9 bd
       0.11521404 0.0077244407 0.12883404 -0.09856854
0002a0 f8 a7 26 3e ea 14 2b be 16 e3 f7 bd fd 68 37 3d
       0.16275012 -0.16707197 -0.1210386 0.04477786
0002b0 86 d0 29 3e 4c 63 eb 3d 24 7a 12 3e 9f 73 04 3d
       0.16583452 0.11493549 0.14304405 0.032336827
0002c0 8d 28 70 bc 8d 21 69 3e 94 1d 14 3e d0 3f 95 bc
       -0.014658106 0.22766705 0.14464408 -0.018218905
0002d0 1e 44 6d bd fa e9 85 3d ff 17 12 3e 6d 66 d1 3d
       -0.05792629 0.06538768 0.14266966 0.10224614
0002e0 57 b4 56 3e 9f ea bf bd 5d 65 b4 3d db 31 fe 3d
       0.20967232 -0.09370922 0.08808396 0.12411853
0002f0 e3 35 3c be 2a c3 ac bd d1 5b 7b be 48 43 30 3e
       -0.18379931 -0.08435662 -0.24546744 0.17213166
000300 e6 c3 3e 3e 28 23 89 be 00 c8 19 bd 26 5f 08 be
       0.18629417 -0.26784635 -0.03754425 -0.13317546
000310 ae 39 19 be 3f 6e 92 3d 01 84 b1 3d b5 8a 6b 3e
       -0.1496341 0.07149934 0.08667756 0.23002131
000320 75 50 85 bd ee 8e 50 3e 8b e4 3c bc 5f 6c 46 be
       -0.065094866 0.20367023 -0.011529098 -0.19377278
000330 cb af 1a bd bb 6a a7 3c cd a9 1d 3a 14 e6 63 3e
       -0.037765305 0.020436635 0.0006014377 0.22255737
000340 cf 36 10 3e 85 84 2e be 81 d8 5e 3d fe 3b da 3d
       0.14083408 -0.1704274 0.054405693 0.10655974
000350 2e e1 76 3e e6 0f 37 be 62 63 d6 3d 4e 11 ca 3d
       0.24109337 -0.17877159 0.104681745 0.09866582
000360 c6 73 ee 3d 53 a2 d8 3d af 3e 6e 3d 6b 52 66 3b
       0.11643176 0.10577836 0.05816525 0.003514434
000370 cf 1c 46 bd f1 34 b4 3c 1b dc f3 3c 60 2f 7b bd
       -0.048367318 0.0219979 0.02976804 -0.061324477
000380 ab bf 2a be e4 5e 7d bd c7 46 2e 3e ba e0 69 be
       -0.16674678 -0.061858073 0.17019187 -0.22839633
000390 9c 54 40 be cb c3 1e be ff 44 0a be dd 02 3f bc
       -0.18782276 -0.15504377 -0.13502882 -0.0116583975
0003a0 2a 1c 06 3e 64 7a 93 3d 6d f9 38 be b8 0d 67 3d
       0.13096681 0.072010785 -0.18063898 0.056409568
0003b0 2f 60 62 3e 32 6a 8d 3d 7f 9f 57 be db d7 1f 3e
       0.22107004 0.06905021 -0.21056937 0.15609686
0003c0 eb cb 1a be d6 43 2c 3e eb e0 3b 3e 84 af f9 3d
       -0.15116851 0.16822752 0.18347518 0.1219168
0003d0 6e f0 e4 3c 9e fe 63 bc a0 66 4a 3c d0 0b c1 3d
       0.027946677 -0.013915686 0.012353569 0.09426081
0003e0 87 1e ee 3d 34 29 88 3d d7 e7 83 be f6 8d 4c be
       0.116269164 0.06648484 -0.25762817 -0.19976029
0003f0 7c cb a7 3c 38 60 40 be 1c 9f 16 3e a7 da b2 3a
       0.020482771 -0.18786705 0.14709133 0.0013645486

arith.constant6 f4 [128, 1024]
000000 7d 83 78 3a 64 3d 29 3d 5a 0e ae 3b 7a 93 23 3d
       0.00094800425 0.041318312 0.0053117694 0.039935566
000010 42 b4 39 bc ac 75 23 bd b3 3f 95 bc c6 9e f1 3c
       -0.011334481 -0.039907143 -0.01821885 0.029494654
000020 53 f1 58 3d 4a f8 44 3d 2c f7 a9 bc 02 1d 2b 3d
       0.05296452 0.04808835 -0.020747744 0.04177571
000030 61 47 71 3d 1e 3b c9 3c 70 08 dd bc a3 af 41 ba
       0.058905963 0.024564322 -0.026981562 -0.00073885376
000040 db ea 23 bb 40 c7 fc bc 25 2e ae 3a e4 4c cf bc
       -0.002501181 -0.030856729 0.0013288899 -0.025305219
000050 07 f5 28 bd 34 2a 98 bd 8a f6 83 bd ed f2 51 bd
       -0.0412493 -0.074299246 -0.06443508 -0.051257063
000060 b2 97 9f 3b b3 6b 9a bd 1d 5c 33 bd 37 a1 40 3c
       0.0048703784 -0.07540073 -0.043789018 0.011757187
000070 f3 99 8a ba c6 5d 9b bc b1 d8 e3 bc 27 08 87 3c
       -0.0010574445 -0.018965613 -0.027813287 0.01648338
000080 f1 f4 99 3c 39 d8 84 3d e9 6d 10 3d 9f 46 80 bc
       0.018793555 0.06486554 0.03526107 -0.015658675
000090 3a 00 8e bc 00 3e ee ba dd 95 60 bc 22 f4 13 3d
       -0.017334092 -0.0018176436 -0.013707605 0.036121495
0000a0 34 b2 a3 3c 33 99 ae bc 84 75 63 3d 8f e7 25 3d
       0.019982435 -0.021313285 0.055531994 0.040504035
0000b0 85 e4 0a bd ab 30 05 3d 1c 7e 87 bd 47 2c bc 3c
       -0.03390934 0.032517117 -0.0661585 0.022970332
0000c0 64 80 bb bb 46 b7 96 bd 3f 3a 30 bd 08 02 95 bd
       -0.0057220925 -0.073591754 -0.043024298 -0.07275778
0000d0 74 59 ed bb 02 22 d2 bc 2a 81 76 bc d9 b4 6b bd
       -0.0072433297 -0.025650982 -0.015045444 -0.057545517
0000e0 8a 09 ac bc 22 aa 8a bc 0f 24 f6 3b c6 30 96 bd
       -0.021000642 -0.016926829 0.0075116227 -0.073335215
0000f0 10 a3 2e 3c 12 8a fc bc 4f a7 7f bb 7f ef 6a 3d
       0.010658994 -0.030827556 -0.0039009636 0.057357308
000100 aa a5 74 3d 30 39 33 bd d7 da 2c 3d 89 aa 29 3d
       0.059728302 -0.04375571 0.04220089 0.0414224
000110 ce 90 d3 3c 8f 33 44 3d f6 e4 4a bd 51 33 7f bd
       0.025825884 0.047900733 -0.04953476 -0.0623048
000120 2c 1b ea bc 7c a0 e4 3c a3 39 62 bd b8 d4 f2 bc
       -0.02857741 0.027908556 -0.055230748 -0.029642448
000130 a4 97 64 bd fd a1 50 bd 9c bd 89 bd 31 f4 34 3d
       -0.05580868 -0.050935734 -0.06725618 0.04417819
000140 36 1f 35 3d 57 3c 91 bd 46 08 0d bd 45 de 29 3d
       0.04421922 -0.07091587 -0.03443172 0.04147174
000150 5f fe 1c b9 7b e9 8f bc 93 d9 9c bc cd 7a e8 ba
       -0.0001497208 -0.017567387 -0.019146716 -0.0017736793
000160 7a 57 3b bc 5b 89 b0 bc 24 7b e1 bb d9 7a 9e 3c
       -0.01143443 -0.021549871 -0.0068811346 0.019345688
000170 75 18 13 3d b3 64 64 bc 7e d9 1a bd df 04 30 bd
       0.035911996 -0.013940024 -0.037805073 -0.042973395
000180 67 fb fb bb bf 99 e0 3c f6 0a 43 3d 3e 87 ef 3b
       -0.0076898816 0.027417062 0.047617875 0.0073098233
000190 0e fc 97 3c 52 74 6a 3d f9 92 d6 3c 8d 73 51 3d
       0.018552806 0.057239838 0.026193129 0.05113559
0001a0 d6 ae 29 bc 05 a7 99 bc 14 6c 83 3c fb 70 39 bd
       -0.010356626 -0.018756399 0.016042747 -0.045273762
0001b0 80 99 5d 3c 22 9e 8e bd 8d f7 a5 bc 68 2d e7 3c
       0.013525367 -0.06963755 -0.020259643 0.028219894
0001c0 3e a9 6d bd 37 00 92 bc 71 72 7b 3c ea c1 b0 3c
       -0.05802273 -0.017822368 0.015347109 0.02157684
0001d0 ca 12 0f 3d 96 6d 52 bd f3 03 23 3d f0 6c 13 bd
       0.034930028 -0.05137404 0.03979869 -0.035992563
0001e0 0d 60 69 3d 95 71 27 3d 8f 27 f5 bb 7c ef 84 bc
       0.056976367 0.040879805 -0.0074815224 -0.016227476
0001f0 7e 67 81 3d 25 ba 5e 3d d6 26 0b 3c 56 34 f9 bc
       0.06318568 0.05437674 0.008493146 -0.030420464
000200 1e 1f 06 bc 1c 40 1a 3c 5d f5 9b bd 6c 82 3b 3c
       -0.00818613 0.009414699 -0.07615159 0.011444669
000210 e3 1c 2d 3d 05 13 6b 3c c0 22 37 bd 6b f4 80 3d
       0.042263877 0.014347796 -0.044710875 0.06296619
000220 79 b3 1a bd ee 4d 84 3d dd a7 09 3d ea 81 58 3b
       -0.037768815 0.064601764 0.033607353 0.003303642
000230 a1 7b 77 bd 74 96 31 bb 90 dc d3 bb 82 f2 d3 bc
       -0.060420636 -0.0027097734 -0.006465502 -0.025872473
000240 20 8f 31 bd 1b 1f c3 bb b6 71 21 bc d8 09 62 3d
       -0.043349385 -0.005954636 -0.009853771 0.05518517
000250 5c 49 82 3d ed 1b 4c bd 72 fb 27 3d 54 e5 03 bd
       0.063616484 -0.04983132 0.04101128 -0.032201126
000260 e5 d0 12 bd 5c 1d de 3c af 18 c9 3c 27 f2 81 bd
       -0.03584375 0.027113609 0.024547903 -0.06345015
000270 0c 30 4a 3d a1 5f 8a bd 17 0c 87 3d 85 8e a8 3c
       0.049362227 -0.06756521 0.06594103 0.020575771
000280 34 03 f7 3c 3d e7 18 bc 3e 0f b0 bc 0d 21 98 bc
       0.030152895 -0.009332475 -0.021491643 -0.018570447
000290 60 26 58 3d f1 45 94 3c 7b 0d 81 bc 0f c2 72 bc
       0.052770972 0.018099757 -0.015753498 -0.014816775
0002a0 26 be 86 bc 2d 83 0b bd 02 af 5f bd 40 5e a1 3d
       -0.016448092 -0.034060646 -0.05461026 0.07879305
0002b0 3b ae 7a 3d 72 7a 41 3c fb 2d 94 bd 5e 23 48 3d
       0.061201315 0.011808978 -0.072353326 0.048861854
0002c0 6f 83 32 bd e7 7d a0 bd 75 8a 84 bc f7 65 53 3d
       -0.043582376 -0.07836514 -0.016179303 0.051610913
0002d0 34 1b 66 bd 3e c7 65 3d 60 ff 72 3c 1a ad ad ba
       -0.056178287 0.056098215 0.014831394 -0.0013250441
0002e0 5b 60 39 bd 9d 28 17 bd 28 8f 03 bd 2b ae 90 bd
       -0.045257907 -0.036903966 -0.032118946 -0.0706447
0002f0 88 91 39 3b c7 99 de bc f9 42 20 bd b5 f9 12 3d
       0.0028315503 -0.027172936 -0.03912637 0.03588267
000300 4f b1 87 3c df 01 f2 bc de 80 26 3c a5 17 22 3d
       0.01656404 -0.029541908 0.01016256 0.03957333
000310 c9 12 de 3c 5e 06 68 bd 2e 9d 53 bc cc f4 29 bd
       0.027108567 -0.056646697 -0.0129158925 -0.041493222
000320 51 d7 88 3c 1c a0 6d 3d b9 fb 84 bd 3c f1 5b 3d
       0.016704233 0.05801402 -0.06493325 0.053696856
000330 c5 a6 96 bd c7 f1 47 bd 4c b3 6f bc ee 84 0d 3a
       -0.073560275 -0.04881456 -0.01463015 0.0005398531
000340 29 ed 57 bd 5d 8f 3f 3d 3d 55 4a bd 6c 2c 0b bd
       -0.052716408 0.04676758 -0.049397696 -0.03397791
000350 cb 53 98 3c c3 7d 35 3c 18 1d 93 bd 3d 2b 91 bd
       0.018594643 0.011077347 -0.071832836 -0.07088325
000360 8e 6a 30 bd 2a 49 52 3d 6d c4 8c bd c9 80 e2 bc
       -0.04307037 0.051339306 -0.06873403 -0.0276493
000370 f3 b1 26 3c 17 44 1f bd 10 0c 8f bd fd 3b 93 bd
       0.010174262 -0.038883295 -0.069847226 -0.07189176
000380 52 c3 6c bd 0c ae 31 bd c0 8f f2 bc 65 09 5f 3d
       -0.05780346 -0.043378875 -0.029609561 0.05445232
000390 4d d4 69 bd 30 59 f4 3c 25 f2 64 bd 66 39 5b 3d
       -0.05708723 0.029827684 -0.05589499 0.053521536
0003a0 64 f6 f1 3c 15 e2 6b bb 5e 81 68 bd 1c ae 39 3d
       0.029536434 -0.003599291 -0.056764 0.04533206
0003b0 d4 5c 2b 3d 2b c5 1b bd 48 a6 d0 3c a6 55 72 bd
       0.041836575 -0.03802983 0.025469914 -0.059163712
0003c0 14 c9 39 3d a1 82 21 3d 8d 41 9b bd ef df a1 bd
       0.04535778 0.039431218 -0.07580862 -0.0790404
0003d0 6b 53 5b 3b b5 ee 2d bc fe fb 6c 3d dd 4f e1 3a
       0.003346647 -0.010615994 0.057857506 0.0017189939
0003e0 e0 1d 0e bd 64 27 70 3d 26 34 ea bc 41 38 a0 bd
       -0.03469646 0.058631316 -0.02858932 -0.078232296
0003f0 72 3f 6d 3c ce 6d 2e 3b f7 3e 77 bd 2a f9 65 3d
       0.014480459 0.0026615742 -0.060362782 0.056145824

arith.constant7 f4 [4]
000000 2c e8 7a ba 7e 78 37 3a 73 fb 69 bc 7e 8e 11 3c
       -0.00095713395 0.0006998851 -0.014281142 0.00888407

arith.constant8 f4 [128]
000000 09 35 fc bb f9 b6 c4 bb cd 00 52 3c 7c a5 fd bb
       -0.007696752 -0.0060032574 0.012817574 -0.0077406745
000010 f9 e9 69 3c 2c c7 c4 bb 30 a4 c4 bb 5f e4 b0 bb
       0.014276975 -0.0060051885 -0.006001018 -0.0053983177
000020 b2 13 93 3a 11 3d 1a 3c b1 e8 07 3c fc c3 c8 bb
       0.001122108 0.009413973 0.008295224 -0.006126879
000030 e8 b2 51 3c 00 00 00 00 ff 8e b2 3a 01 c5 c4 bb
       0.012799002 0.0 0.0013622938 -0.00600493
000040 8d c8 1f 3c 00 00 00 00 81 bf b8 ba 00 06 1e 3c
       0.009752405 0.0 -0.0014095159 0.009644985
000050 5d fb 0b bc e6 7f 24 bc 9c b3 04 bc 8e 09 b6 bb
       -0.008543816 -0.010040259 -0.008099463 -0.005555338
000060 3c ed 7a bb 18 6b c4 bb c1 7c 48 3c 72 37 9a 3b
       -0.0038288375 -0.005994212 0.012236775 0.0047063166
000070 97 96 11 bb 70 c5 c4 bb e2 2d 09 bc 75 83 c4 bb
       -0.0022215003 -0.0060049817 -0.008372756 -0.005997116
000080 06 2d 8d ba c7 fd b5 bb 26 e5 a3 3b b8 92 3e 3b
       -0.0010770864 -0.0055539343 0.005001682 0.002907915
000090 14 16 42 3c 88 b6 9d ba 00 00 00 00 4c 68 ad bb
       0.011846084 -0.0012032548 0.0 -0.005291974
0000a0 0b a7 c4 bb 8e 38 98 bb 46 ac 4b 3c 9c 8c 77 3c
       -0.0060013584 -0.0046454137 0.01243121 0.0151092075
0000b0 8e 1b f8 bb 50 fd 54 3c be 19 82 ba bc 77 d3 bb
       -0.007571644 0.0129998475 -0.0009925885 -0.0064534824
0000c0 21 09 59 3b ea f7 08 3c 00 00 00 00 00 00 00 00
       0.0033117014 0.008359889 0.0 0.0
0000d0 7b c0 8b bb f0 8b fc bb 74 0f 78 3b f9 85 06 3b
       -0.004264889 -0.0077071115 0.0037851008 0.0020526631
0000e0 b7 d5 d4 3b 8e a5 cc 3b 24 be f4 bb e9 f0 26 bb
       0.0064952034 0.0062453216 -0.0074689556 -0.0025473183
0000f0 ae 5d f6 ba fd a0 c8 bb 9f a8 94 3b a6 bf ed 3b
       -0.0018796229 -0.006122707 0.0045367028 0.0072555123
000100 6a 8a ac bb 6a b7 0b 3c ea bf ec bb d4 95 56 bb
       -0.0052655237 0.008527616 -0.0072250264 -0.0032743113
000110 1a 22 9d 3b 91 9a 06 bc 06 ad c4 bb c1 b5 4b 3b
       0.004795325 -0.008215562 -0.0060020713 0.0031083676
000120 6e a2 3d bb db b0 21 3c 64 92 db ba 7a 43 23 bc
       -0.0028935927 0.009868826 -0.0016752002 -0.009964818
000130 39 b2 c4 bb 2e f7 e7 3a 68 ec a7 bb d8 54 ef 3b
       -0.006002691 0.0017697567 -0.0051246174 0.0073038153
000140 60 15 d9 bb 49 e7 a7 bb 67 a5 35 3b a7 f5 66 3c
       -0.0066248626 -0.005124007 0.0027716996 0.014096654
000150 21 3a e4 3a 5b b3 95 3a 66 f5 03 bc ae ae 07 bc
       0.0017412343 0.001142125 -0.008054113 -0.008281393
000160 86 db e7 bb 38 40 31 3c a1 80 8c 3c 9c dd 10 bc
       -0.00707573 0.010818534 0.017151179 -0.008841898
000170 1f 1d e8 bb 48 7f 39 3b 77 4e 95 bb 71 43 ab bc
       -0.0070835496 0.0028304625 -0.004556473 -0.020906182
000180 17 bd c4 bb 62 6e f9 bb 0c f9 58 3b 17 b5 2c bb
       -0.0060039866 -0.0076120356 0.0033107428 -0.0026353055
000190 8d b2 e4 ba 1d f8 6c 3c 00 00 00 00 c5 60 64 3b
       -0.0017448232 0.014463452 0.0 0.0034847718
0001a0 07 76 a8 bb fc 5a 54 3b e6 60 9b ba b5 65 f0 bb
       -0.005141023 0.0032402864 -0.001185444 -0.007336343
0001b0 37 c7 66 ba 92 4b 86 39 55 bb 24 3c 41 96 35 3b
       -0.0008803489 0.00025614776 0.010054429 0.0027707967
0001c0 2d c6 c4 bb db b4 c4 bb 29 57 86 bb 2e c7 58 b8
       -0.0060050697 -0.006003005 -0.004099746 -5.1683914e-05
0001d0 c6 71 bf 3a 38 f4 13 3c 00 00 00 00 00 00 00 00
       0.0014606051 0.009030394 0.0 0.0
0001e0 d9 ad d4 3b 89 32 07 bc 99 bf 7b 3b 92 69 6a 3b
       0.006490451 -0.008251795 0.0038413762 0.0035768491
0001f0 90 d6 5e bc 77 06 ae 3b 0d 91 9f bb ca 70 3d bb
       -0.01360096 0.0053108293 -0.0048695863 -0.002890634

sequential_27_1/conv2d_75_1/Relu;sequential_27_1/conv2d_75_1/BiasAdd;sequential_27_1/conv2d_75_1/convolution; f4 [16, 3, 3, 3]
000000 f8 bf 7b 39 ba 85 b4 b9 70 36 07 3a b1 b4 2d 3a
       0.0002400874 -0.0003443191 0.0005157953 0.00066263514
000010 8e 87 21 ba ae b8 ad 39 89 86 32 ba 7e 5b cf b9
       -0.0006161862 0.00033134728 -0.00068102084 -0.00039550284
000020 ed 81 16 3a b0 5b 25 ba c3 9e b4 39 79 ac 3a 3a
       0.00057414063 -0.0006307913 0.00034450562 0.00071210373
000030 cf 81 3c b8 8a 79 61 39 82 bd 3a 3a a9 7f df b9
       -4.4943587e-05 0.00021502949 0.0007123576 -0.0004262899
000040 13 e5 02 ba 05 ed 36 3a 60 79 c7 b9 54 1f e6 39
       -0.0004993241 0.00069780677 -0.0003804667 0.0004389236
000050 2e 42 cd b7 9b 80 80 38 23 bd 07 ba de a2 67 39
       -2.4468722e-05 6.12747e-05 -0.0005178025 0.0002209055
000060 e4 da 5c b9 a8 d8 9a b9 26 76 17 3a ca e7 21 ba
       -0.00021062378 -0.0002953459 0.00057777984 -0.0006176202
000070 03 12 1d ba 73 94 4e ba 6d 7a 6a b9 d4 74 26 39
       -0.00059917587 -0.0007880397 -0.00022361586 0.00015874516
000080 90 ae 45 3a 3e 57 03 b9 c6 0c a4 b9 4a a2 b2 b9
       0.00075409655 -0.00012525634 -0.00031290035 -0.0003407172
000090 2e 24 80 b9 d8 60 82 b9 0b 05 15 3a ea 54 d9 37
       -0.00024441018 -0.00024867686 0.00056846504 2.5907957e-05
0000a0 99 06 a4 39 0e 6e 13 ba c1 9d 17 3a 48 9f d8 b8
       0.00031285433 -0.00056240044 0.00057837 -0.00010329351
0000b0 61 fa f6 b9 7b 24 d2 b9 cc 10 41 3a f2 59 3f 3a
       -0.00047107323 -0.000400815 0.00073648687 0.00072994747
0000c0 59 83 14 3a 59 40 35 39 c2 b5 c9 39 5c c9 27 ba
       0.0005665324 0.00017285476 0.00038473128 -0.00064005493
0000d0 66 8d a8 38 d4 fa 08 b9 0a 8a 06 ba 47 a6 9b 39
       8.037202e-05 -0.00013063411 -0.0005132264 0.0002968779
0000e0 bf c5 28 39 48 bf d4 b8 84 16 70 39 59 30 11 ba
       0.00016095395 -0.00010144577 0.00022896571 -0.00055385154
0000f0 b9 dc bb 39 93 01 a9 b9 c2 be 44 ba b0 80 18 b9
       0.0003583187 -0.00032235365 -0.0007505232 -0.0001454379
000100 69 b8 75 39 4a a1 44 ba c3 e4 85 b8 8b 39 e6 39
       0.00023433719 -0.00075008406 -6.3845444e-05 0.0004391189
000110 37 6a 1d ba f9 d8 03 3a b5 7e bf b9 16 42 24 3a
       -0.0006004902 0.0005029585 -0.00036524763 0.0006265951
000120 22 94 09 b9 8b 20 2b ba bd 75 be b9 da e6 d6 39
       -0.00013120522 -0.00065279816 -0.00036327346 0.0004098926
000130 97 52 0d 3a a0 8d 27 3a 73 f3 3f 3a b2 5a f3 39
       0.000539103 0.0006391648 0.00073223485 0.00046416145
000140 21 89 86 b9 19 f3 23 b9 0b 30 0e ba 05 d1 27 3a
       -0.0002566064 -0.00015635452 -0.0005424029 0.0006401691
000150 11 52 35 ba 11 e0 dc 37 1b a4 0a 3a 8f 14 46 3a
       -0.0006916831 2.6330383e-05 0.0005288736 0.0007556164
000160 c3 75 f2 b9 a5 a6 26 3a e9 21 34 3a 69 9a 5d b9
       -0.00046245576 0.00063572294 0.0006871508 -0.00021133725
000170 cd 01 04 ba a1 ed 8a 39 b9 9e f7 b9 99 44 24 3a
       -0.0005035669 0.00026498458 -0.0004722977 0.00062663254
000180 8c ef e5 b9 1a 66 38 ba 63 8d 43 ba bc 32 51 b9
       -0.0004385676 -0.0007034257 -0.0007459728 -0.00019950693
000190 97 d3 26 3a a0 79 26 3a 4c ce 3d 3a b9 7e 43 ba
       0.0006363927 0.0006350521 0.00072405185 -0.0007457543
0001a0 ec 05 35 ba ae 45 33 b9 8c 11 68 b7 77 db 1c 3a
       -0.00069054845 -0.00017096728 -1.3832363e-05 0.00059836305
0001b0 ef 4b 1c ba 84 43 12 3a 80 72 93 b4 76 50 a8 b9
       -0.0005962243 0.00055795186 -2.7464193e-07 -0.00032103405
0001c0 0e 58 20 3a 19 9d 09 ba 01 aa 9d 37 05 d1 25 ba
       0.0006116637 -0.00052495446 1.8795023e-05 -0.0006325397
0001d0 1e cf 33 39 21 bb 32 3a 7f 2e 57 b5 53 f7 42 3a
       0.00017147927 0.00068180455 -8.01614e-07 0.0007437367
0001e0 e6 77 06 ba 62 21 0a 3a 01 bd fb 38 2d 5c 97 b9
       -0.00051295606 0.00052692567 0.000120038174 -0.0002886964
0001f0 87 00 5f 38 4c 05 2c 38 4a 70 24 ba 4a a9 a9 b9
       5.3167834e-05 4.101293e-05 -0.0006272836 -0.00032360322
000200 56 fd e4 38 9a f9 c0 39 28 5a 98 39 e5 40 16 3a
       0.00010919075 0.0003680706 0.0002905887 0.0005731716
000210 d9 50 17 3a 10 9b b8 b9 1b 2a 9d 39 2c 83 80 b9
       0.000577224 -0.00035210745 0.00029976745 -0.00024511793
000220 2a ed 18 3a d6 c1 f0 39 9f 2b b7 39 50 75 85 b9
       0.000583368 0.00045920786 0.0003493698 -0.0002545514
000230 33 37 0a ba 1b 84 06 ba ac 36 2b b9 9c 0d 0b ba
       -0.00052725076 -0.00051313796 -0.00016328198 -0.0005304457
000240 f2 81 f6 38 ce c3 1f ba e3 80 db 39 6b 57 3f b9
       0.00011754398 -0.0006094546 0.00041866963 -0.00018247745
000250 2c a1 0c 3a 77 b2 2d ba f6 5c 1c ba dc 1d 07 3a
       0.00053645927 -0.00066260196 -0.000596478 0.00051542907
000260 54 0c 15 ba c9 0a b3 39 a1 5e 24 ba df 49 15 3a
       -0.0005685736 0.00034149576 -0.00062702043 0.00056949066
000270 f7 f6 59 39 da b8 93 b7 ca 63 e9 39 48 b6 89 39
       0.00020786734 -1.7609844e-05 0.00044515572 0.00026266486
000280 8c e3 04 ba de 47 3b b9 5e b8 7a 39 0f ee a8 b9
       -0.00050693075 -0.00017860482 0.0002391054 -0.00032220825
000290 13 42 60 b9 c7 cd 54 37 62 bf ef 38 f9 d3 94 b8
       -0.00021386919 1.2684096e-05 0.00011432056 -7.096673e-05
0002a0 a2 98 5f b9 cf c5 01 3a 9a ac 42 3a 94 7d eb 39
       -0.00021323797 0.0004950435 0.00074262323 0.00044916256
0002b0 f0 9d e4 b9 d0 6a d1 b9 33 38 12 3a 0b a7 8b 38
       -0.0004360522 -0.00039943168 0.00055778323 6.659151e-05
0002c0 1f 0b 20 3a 91 f8 12 ba 20 19 0e 39 df 5b 4f 3a
       0.0006105173 -0.0005606497 0.00013551535 0.0007910113
0002d0 a6 3a 38 ba de 55 ca b9 00 64 bc b8 dc 09 1b ba
       -0.0007027782 -0.00038592418 -8.983165e-05 -0.000591425
0002e0 d4 1a 03 3a be a3 c2 b9 fc 46 15 39 63 e4 1a 3a
       0.0005001251 -0.0003712456 0.00014236191 0.0005908666
0002f0 7b f2 f0 39 8f c5 0c 3a cf 25 4b 3a ee a8 fe b9
       0.0004595703 0.00053700147 0.00077494694 -0.00048572518
000300 24 8d 97 39 c7 0c 05 3a 6f 7c 36 3a c3 fc d2 b9
       0.00028906122 0.00050754513 0.0006961291 -0.00040242643
000310 b3 3a 56 b8 dd 4b d1 b9 3f 7c e8 39 1c f3 34 3a
       -5.1076244e-05 -0.0003992011 0.0004434306 0.0006902681
000320 4c d3 10 ba 43 e8 8d 39 d1 00 39 3a c2 16 98 b9
       -0.000552465 0.00027066664 0.00070573116 -0.00029008655
000330 8c 21 04 ba d3 a1 9f 39 5b fc b2 b9 85 86 4a ba
       -0.0005040399 0.00030447412 -0.00034138825 -0.00077257334
000340 bb 5e 9d b9 db 54 43 ba 30 15 48 ba 56 a2 b3 38
       -0.00030015953 -0.0007451304 -0.0007632552 8.5656226e-05
000350 32 db 52 38 58 53 e9 37 7a dc 1b 39 39 49 2f 3a
       5.0272043e-05 2.7814574e-05 0.00014864086 0.0006686631
000360 75 c9 30 3a 7c a0 18 3a a6 a9 25 3a 06 94 c4 b8
       0.00067438866 0.0005822254 0.000631953 -9.37358e-05
000370 4a 6c 56 39 49 15 9a 37 6c f5 9d b9 8a 00 7e b9
       0.00020448971 1.8368142e-05 -0.00030128227 -0.00024223528
000380 3a 3e 08 39 02 8b 26 39 3d d1 0c b9 f6 2d 16 ba
       0.00012993152 0.00015882778 -0.00013429388 -0.00057288946
000390 35 bf 32 ba e5 54 26 39 48 2c 1d 3a 5e 5d 6c b9
       -0.0006818653 0.0001586262 0.0005995673 -0.00022541496
0003a0 45 72 39 3a 22 9d 32 ba 8f 4e 0a 3a 82 52 ab 39
       0.00070742174 -0.0006813576 0.00052759884 0.00032677135
0003b0 04 5b 94 b8 c5 62 38 38 0b 0c 0e 39 cc b0 9a b9
       -7.074143e-05 4.3961005e-05 0.00013546662 -0.00029504893
0003c0 39 e9 e3 39 0f 95 07 3a 21 06 b1 b9 79 e7 92 b8
       0.00043470578 0.0005172053 -0.00033764637 -7.004938e-05
0003d0 8e b1 4e b9 62 e3 8d 39 c6 46 8e b9 d5 dd 19 b9
       -0.00019711835 0.0002706303 -0.0002713708 -0.00014673856
0003e0 fc e3 2d 3a 4c 15 14 ba b3 0f 19 ba 34 85 1a 39
       0.00066333986 -0.00056489254 -0.0005838826 0.00014736207
0003f0 55 d2 36 3a 45 29 0d ba a9 d3 a6 39 f5 c7 76 39
       0.0006974091 -0.0005384873 0.00031819686 0.00023534878
